checkpoint.pth (torch_old, 54603 bytes, 6 tensors)

model.0.weight f4 [128, 37]
000000 04 96 10 3e 9b b4 13 3e 14 58 d9 3d bb 67 5a 3e
       0.14119726 0.14424364 0.10612503 0.21328633
000010 1f 3b 16 bd 8d ad 05 3e 3e 0e 23 bd b3 53 23 3e
       -0.036677476 0.13054486 -0.039808504 0.15949897
000020 e5 6d d9 3d 75 8c ca be d3 b6 06 3e 39 0a 10 3e
       0.10616664 -0.39560285 0.1315568 0.140664
000030 44 f8 2f 3e 03 30 0f 3e a2 45 54 bc 6c 99 c2 3d
       0.1718455 0.13983159 -0.012956055 0.09501919
000040 b9 3b 28 3e 4d a3 07 3d 18 a8 a1 bb 3d c4 47 3d
       0.16429032 0.03311472 -0.0049333684 0.04877113
000050 91 3e c2 3c 3a bd f2 3c e1 9f ec 3b af c5 cf 3d
       0.023711475 0.029631246 0.0072212075 0.10145127
000060 f5 a6 d5 bd a9 4c f5 3c dc 3d c7 3a 55 63 0e bd
       -0.10432235 0.029943781 0.0015200931 -0.0347627
000070 ef c0 16 bd 4e d3 82 be 27 f4 5c 3e 31 46 12 bd
       -0.03680509 -0.25551838 0.21577512 -0.03571147
000080 35 85 24 3e ff 87 3f 3d 4c cc 2e be 5e fc 1a 3d
       0.1606644 0.046760555 -0.1707012 0.037838332
000090 9a ed d0 3b a3 80 10 3e 6a 68 00 3e a8 eb 8c bc
       0.0063759806 0.14111571 0.12539831 -0.017202213
0000a0 23 44 39 bd 76 fd a5 bd f7 47 85 3c df 6a 04 3e
       -0.045230996 -0.081049845 0.016269667 0.12931393
0000b0 3d 00 88 3e de 15 63 bd 75 3b 23 3e 56 b8 0a bc
       0.26562682 -0.055440776 0.1594065 -0.008466801
0000c0 1d 72 57 3d cc ec 2d 3d 85 a7 f7 bd 9e de 8f 3d
       0.05259906 0.042462155 -0.12092499 0.07024883
0000d0 9e 85 6e bd ea 78 1d 3e a8 11 5b 3d 87 df 2c 3d
       -0.058232896 0.15378156 0.053483635 0.04220536
0000e0 d6 d4 2c bd 23 44 84 3d d6 75 7b 3d c7 d6 05 3d
       -0.042195164 0.064583085 0.061391674 0.03267553
0000f0 f3 2c 73 3b f7 df 66 be 10 4d ac 3d ab 9b 34 bd
       0.003710565 -0.22546373 0.08413136 -0.04409377
000100 89 b7 b6 3c c1 cc df 3d 3d 4f b4 3e 7e d7 7b 3d
       0.022304313 0.109277256 0.35216704 0.061484806
000110 74 ad 57 be d8 97 9b bc 4a d1 e7 3d 9c d5 a9 3e
       -0.21062261 -0.018993303 0.113192156 0.33170784
000120 49 a9 61 3d 65 13 91 bd 79 e3 f8 bd 09 5e 54 be
       0.055093084 -0.07083777 -0.12152762 -0.20738997
000130 25 67 36 be e9 2e 71 bd e5 41 29 3d fa 2a 88 3d
       -0.17812784 -0.058882628 0.041322608 0.06648822
000140 c6 45 60 be 39 aa dd bd 7c 27 0e 3d c2 2b c3 3d
       -0.21901616 -0.10823483 0.034705624 0.095298305
000150 17 16 e5 3c 40 f7 6c bd 74 51 0b bc 27 c1 c7 bd
       0.027964635 -0.057852983 -0.008503307 -0.09753638
000160 a8 c1 c5 bd 1b ef 49 3d bf e9 68 bd db d5 d3 bd
       -0.096560776 0.049300294 -0.056863543 -0.10343524
000170 a6 99 bc bc e6 05 d6 3d 7e 07 e4 bd 39 c8 c9 bd
       -0.023022484 0.10450344 -0.111342415 -0.098526426
000180 6c c9 a4 3c 78 32 03 be 5d 1c 1b be 50 1e 56 be
       0.020115577 -0.12812221 -0.15147538 -0.20910001
000190 9a ee d4 bd d7 c7 bc bd e9 ea 83 bd ef 11 24 be
       -0.10397072 -0.09217804 -0.0644129 -0.16022466
0001a0 9d 0c bd bd 91 a7 0a be 60 89 f7 bd da bf 51 be
       -0.092309214 -0.13540484 -0.12086749 -0.20483342
0001b0 72 8b 12 be 46 36 dd bd f7 68 09 3e 70 ab 72 3d
       -0.14311007 -0.108013675 0.13418947 0.059245527
0001c0 f1 99 01 bc 5b 33 f0 bd 1a 6c 20 be b4 c0 84 b9
       -0.007910238 -0.11728545 -0.15666237 -0.00025320577
0001d0 59 85 86 3c 08 32 33 be 81 c4 bf bd 8c b5 7e bd
       0.016421007 -0.17499554 -0.09363652 -0.062184855
0001e0 10 f2 7e 3e 80 14 a6 bc 01 04 24 bc d7 32 07 be
       0.24897027 -0.020273447 -0.01001072 -0.13202988
0001f0 5d b9 05 be 1d a0 9e bc 6c 6f 30 bd 49 6c e9 bd
       -0.13058992 -0.019363457 -0.04307501 -0.11397607
000200 35 ba af 3d f4 5a c7 bc 47 b5 55 3e 1e 52 53 3d
       0.08580438 -0.024335362 0.20869933 0.051591985
000210 b4 82 cd bd 49 bf ca 3d fd c5 d0 bd 54 9b 80 bc
       -0.10034695 0.09899766 -0.10194013 -0.015699066
000220 4a 8b ca bd 1f 52 63 be 9d 9a 35 bd 2d c6 a3 bd
       -0.098898485 -0.22199295 -0.044336904 -0.079967834
000230 2d 38 88 3e f4 45 0d be e9 e6 8f 3d 59 ab 91 bd
       0.2660536 -0.13796216 0.070264645 -0.0711276
000240 d7 58 8b bd 54 c5 1f 3d 24 7e b8 bb bd aa 0a 3e
       -0.06804054 0.039006546 -0.0056302715 0.13541694
000250 43 4f 53 3e 56 b0 0c be f9 5f 22 3d 7d 71 fd bc
       0.20635705 -0.13739142 0.039642308 -0.030937904
000260 46 89 15 be 2f de bb bd 3d a5 36 3e a4 4c 76 bd
       -0.14603147 -0.091732375 0.17836471 -0.060131684
000270 a0 c2 54 3d e4 cc b5 3d b9 db 6d 3d ba 1c 28 3d
       0.05194342 0.088769704 0.058070872 0.04104302
000280 5c 24 f7 3d f8 80 04 3d 4f 12 59 bd 69 3b 3e be
       0.12067482 0.032349557 -0.052995976 -0.1857735
000290 45 51 15 3e 67 2c 88 3c 79 dc c0 bc 48 78 c2 3e
       0.14581783 0.016622735 -0.02354263 0.37982392
0002a0 29 91 7e 3d 14 5c 01 bd 3f 24 93 bd 29 c9 fe 3c
       0.062150154 -0.031581953 -0.07184648 0.03110178
0002b0 40 aa aa bd 06 93 ce 3a 27 a6 5e bd 17 a4 08 bd
       -0.08333254 0.0015760369 -0.054357674 -0.033359613
0002c0 a2 99 22 be 0b 1a c1 bd 28 35 21 3e 37 3a 3a bd
       -0.15878919 -0.094287954 0.15742934 -0.045465674
0002d0 cf 4d c7 3c ac 8f 4d 3d 59 14 63 be e4 df 0d bd
       0.024329094 0.050185844 -0.22175731 -0.034637347
0002e0 f9 45 87 3b 25 c1 13 3c 8c fa 7b 3d 8d 6f 52 3c
       0.0041282144 0.009018217 0.061518237 0.012843979
0002f0 62 d0 06 3c 30 7d c0 3d e5 74 10 bd f1 85 62 bd
       0.008228393 0.093988776 -0.03526773 -0.055303518
000300 75 ff 09 3e 54 db af 3d 96 0c 2c bd 29 da b7 bd
       0.13476355 0.085867554 -0.04200419 -0.089771576
000310 a6 bc 59 bb d0 06 4f bc 56 c4 42 3d 99 7c 63 3d
       -0.0033224015 -0.012635902 0.04755052 0.055538747
000320 9c ec d3 bd ad f9 3e bd 65 f9 1e 3d 5d aa c1 3c
       -0.10347864 -0.046624828 0.03881206 0.023640806
000330 dd e6 c1 3d 83 70 85 bd 4f 51 1c be 3f d8 18 be
       0.09467862 -0.065156005 -0.15265392 -0.14926241
000340 47 9e 90 bd ea c7 84 3d f8 1b 0f 3e c2 dc c4 3d
       -0.07061439 0.06483443 0.13975513 0.09612419
000350 de 87 9b be 64 66 77 be 33 4b 8f bf ce 00 67 3d
       -0.30377096 -0.24160153 -1.1194824 0.05639725
000360 fd 68 c9 3d 57 e6 b0 3c f4 3e 1c 3d 28 d1 05 3c
       0.09834478 0.02159421 0.038145974 0.0081675425
000370 31 ba dc bd 0e 5c 36 3d 17 b2 77 bd d1 63 9f bd
       -0.10777701 0.044521384 -0.060472574 -0.0778271
000380 00 46 0c be f5 4c 8b 3d d7 60 b5 3d 36 fe d0 3d
       -0.13698578 0.06801788 0.08856361 0.10204737
000390 0a f2 eb bd 60 15 70 be 99 10 61 be 2a b9 60 bd
       -0.11520775 -0.23445654 -0.21978988 -0.054864086
0003a0 a3 71 b7 3d 70 0a 1a 3e 3a e1 42 3d b0 9c f1 3c
       0.08957221 0.15043044 0.047578074 0.02949366
0003b0 3c d5 49 3d 10 19 cb bd ca 01 24 be b6 3a 1b be
       0.04927562 -0.0991689 -0.16016307 -0.15159115
0003c0 4e db a8 bc d6 34 76 3e f9 20 a8 bc bc 83 8d bc
       -0.020612385 0.24043593 -0.020523535 -0.01727473
0003d0 e9 54 f3 bd af a5 40 be de 30 4c be 1e c7 17 3e
       -0.1188143 -0.18813203 -0.19940516 0.14822051
0003e0 53 77 3e bd f6 11 b6 bd ff e0 d2 bd 61 7d 76 be
       -0.046500515 -0.088901445 -0.10296821 -0.24071266
0003f0 d2 c3 42 bd a2 25 19 bc 69 cb d4 bd 66 ca 6e be
       -0.04755003 -0.009347351 -0.1039036 -0.23319396

model.0.bias f4 [128]
000000 c7 cd 68 3e dc 26 05 3d 28 b5 ed bc e4 81 0c be
       0.22734748 0.032507762 -0.029017046 -0.13721424
000010 d7 ec 55 3e 15 93 c4 bd b8 02 ef bb 0e 4b f1 bd
       0.20891128 -0.09598366 -0.0072940253 -0.11781894
000020 49 2f eb bd b9 ac cf bd c0 db 0f be a6 33 b7 bd
       -0.11483628 -0.10140366 -0.14048672 -0.08945398
000030 1c 84 e4 bc b7 65 12 3e b5 4d f8 3d eb 6a 3c 3e
       -0.027895026 0.14296614 0.121241964 0.18400161
000040 49 9f 10 3c 6b ec e1 3d 71 22 82 3e a5 1c db bd
       0.008827039 0.11031421 0.25416902 -0.10698823
000050 0b 0a 8a 3c 39 c6 15 3e dc 5e 83 3d 48 26 3a 3d
       0.016850492 0.14626397 0.06414577 0.045446664
000060 99 ce 4c bd ff 53 6e bd 23 d3 3a bc 44 0b 49 bd
       -0.050001714 -0.058185574 -0.011402878 -0.04908301
000070 14 43 f8 3d a9 35 f1 3c f8 ec 96 3c 49 f2 fc bd
       0.12122169 0.029444532 0.018423542 -0.123509
000080 35 89 82 3d c6 a7 0d 3e 8b 05 19 be 04 bb e1 bd
       0.063738264 0.13833532 -0.1494352 -0.110219985
000090 30 20 e2 bd d1 24 04 3e 9d 02 31 3e f5 b3 f7 bd
       -0.110412955 0.1290467 0.17286153 -0.12094871
0000a0 36 4f c5 3d 1d a1 f2 3d f2 99 f3 bd 77 6c bc 3c
       0.09634249 0.11847136 -0.11894597 0.023000939
0000b0 85 27 cf 3d 7f b8 27 3e 0f 93 4a 3d f6 1f 74 3d
       0.101149596 0.16378973 0.049456652 0.059600793
0000c0 78 b2 bf bc 91 56 df bd 37 c5 13 3c d8 c6 b9 bc
       -0.02340053 -0.10905183 0.009019188 -0.022677824
0000d0 a7 70 b9 3d 5b 34 e8 bd ee b6 87 3d 86 ef 3e ba
       0.0905469 -0.11338111 0.06626688 -0.00072836166
0000e0 e6 92 b1 3d 2f e7 97 3e 04 64 84 3d b2 a6 95 bd
       0.08670597 0.29668567 0.06464389 -0.07307185
0000f0 c5 35 0c bd 97 56 0a be 97 9a 57 bd 98 04 ed 3d
       -0.034230966 -0.13509594 -0.052637663 0.11573142
000100 83 f1 9c bd 3b 8f 06 3e c6 d0 24 bd 4c e7 a4 3d
       -0.07663252 0.13140576 -0.040238164 0.08051929
000110 21 f9 6f 3e 56 4d 8c 3d e4 59 cf 3d df 18 48 3e
       0.23434879 0.06850688 0.10124567 0.19540738
000120 ee 90 b8 bc 91 2b 25 3b 7b 79 ef bd 9d 23 01 3e
       -0.022530045 0.002520297 -0.116930924 0.12611242
000130 76 28 1a bd 51 61 03 3d d2 f1 13 3e c8 56 d1 3d
       -0.037636243 0.03207523 0.14447716 0.1022163
000140 f4 3a 13 3e 9d 51 32 bd 64 9f c8 b8 0b 81 2a 3e
       0.14377958 -0.043534864 -9.566432e-05 0.16650788
000150 f3 7b 2d bd c2 96 e9 3d 2f f1 86 3e a9 d9 61 3e
       -0.042354535 0.11405708 0.26355883 0.22055687
000160 b7 74 97 bd 5c 8a 73 bd 85 b7 3c bd cd 37 1f be
       -0.073953085 -0.05945812 -0.046073455 -0.1554863
000170 81 8d 6d bc 47 d4 e1 3b b7 15 b9 3d d9 eb 05 3e
       -0.014499069 0.0068917605 0.09037345 0.1307825
000180 3b 56 18 3d 14 6c 9d 3c ac 9a 10 3e b8 49 9d bd
       0.03719161 0.019216575 0.14121503 -0.07680076
000190 d0 58 a8 3d 90 b9 6a 3e 11 e2 85 bc ad ba f4 bd
       0.08220065 0.22922349 -0.016343148 -0.11949668
0001a0 3a 15 ed 3d 1b a1 60 3c 39 19 89 3e 3e cd 97 bd
       0.11576314 0.013710286 0.26777056 -0.07412194
0001b0 d5 e5 9b 3c 6b f2 9d 3d 0f 9b bc bd 58 a4 7c 3e
       0.01903049 0.07712253 -0.092092626 0.24672067
0001c0 7c 5f cb bd f7 74 e3 bd c6 a9 7f 3d 20 36 26 3e
       -0.099303216 -0.11106294 0.062417768 0.16231585
0001d0 e3 b8 17 3e 67 30 64 3e b8 16 ed 3d 4e 98 ff 3d
       0.14816622 0.22284089 0.11576599 0.12480222
0001e0 fe d6 60 bd 27 75 d6 bc a5 63 32 3d 3c f5 14 3e
       -0.054892533 -0.02617891 0.04355206 0.14546674
0001f0 9e 3b 7f bd b0 16 1e 3e 37 81 0c 3e d4 5f b2 3d
       -0.062312715 0.15438342 0.13721167 0.08709684

model.2.weight f4 [64, 128]
000000 d8 4d d1 3d d8 5c 71 3b b9 1c 79 3d 65 fd bc bc
       0.10219926 0.003682902 0.060818408 -0.023070047
000010 5c e1 86 bd de 4c 09 3e 3d 84 57 3d 62 89 00 3e
       -0.06585953 0.13408229 0.052616347 0.12552407
000020 08 13 9d 3d e7 a7 b7 3d 70 da 19 bd b8 99 0d be
       0.076696455 0.08967572 -0.037561834 -0.1382817
000030 ad 23 74 3d 2f 94 97 3d ec 3d c3 bb c5 d5 58 bc
       0.059604336 0.07401311 -0.0059583094 -0.01323456
000040 02 6f ef 3c 8c 03 c0 bd 1a da 31 3b 04 ac 2b bd
       0.029227737 -0.093756765 0.0027138055 -0.041912094
000050 91 5e 6b bd d9 42 a6 bd 67 40 41 3d fe 23 d5 3b
       -0.057463232 -0.08118219 0.04718056 0.0065045347
000060 8d 14 62 3d 6e a8 9e bd 3e 43 2c 3d c2 e4 6f 3d
       0.05519538 -0.07746969 0.042056315 0.05856777
000070 d8 77 32 bd 25 f3 71 3d a6 2b 9d 3d 49 7b ed bc
       -0.043571323 0.05906977 0.07674341 -0.028989451
000080 9d 82 6c 3d f4 68 b5 3d 8b a6 55 3d 1b ee 96 3d
       0.05774175 0.08857909 0.05216078 0.07369634
000090 25 ba a8 bc fa a9 10 bd 2b 88 1f 3d e0 0d 05 3e
       -0.020596573 -0.035318352 0.03894822 0.12993574
0000a0 57 e7 a1 3d 67 82 ee bc 95 ac a3 3d b5 35 a8 bc
       0.07905453 -0.029114915 0.07991902 -0.020533422
0000b0 77 32 35 3d 50 d2 02 bd 88 75 60 3c 8a 85 8b 3c
       0.04423758 -0.03193885 0.013699897 0.01703145
0000c0 44 66 61 3d 0b 5b a3 3d c9 84 79 bd c0 34 8c bd
       0.05502917 0.079763494 -0.06091765 -0.06845999
0000d0 6d 45 21 be f3 3b b2 bc 8f 1d e3 3c d1 27 fb bc
       -0.1574914 -0.021757102 0.027724056 -0.030658634
0000e0 32 2c 94 bd 2a 50 9c bd 90 57 6f bc ec 9f 5d 3d
       -0.07234992 -0.076324776 -0.014608279 0.05410759
0000f0 7f 97 58 be 29 4a 97 3b 19 a2 d7 3c f2 ad 7b 3d
       -0.21151541 0.004616995 0.026322411 0.061445184
000100 3b b2 0a 3e 80 b5 a0 bd fe 91 19 3c a6 f6 85 bd
       0.13544552 -0.078471184 0.009373186 -0.06541185
000110 21 85 77 bd e7 38 95 3d 98 96 5d bd d0 6f c8 bc
       -0.060429696 0.07286244 -0.054098696 -0.024467379
000120 dd b8 7c 3d 85 03 c1 3d 4b 70 be bd f7 47 74 bd
       0.061699737 0.094244994 -0.09298762 -0.059638944
000130 9a 2b 09 be c9 6a 09 3e 96 34 ec bc 1d 1e 4f 3d
       -0.13395539 0.13419642 -0.028833669 0.050565828
000140 5a 6d 0a 3d 49 63 17 bb 01 f1 fb 3c 1e d0 d8 bc
       0.033795692 -0.002309995 0.030754568 -0.026466426
000150 a8 48 b2 3c eb 07 82 bc d9 1c eb 3c 55 ef 52 3d
       0.02176316 -0.015872916 0.02870028 0.051497776
000160 b7 a6 f9 bc d8 8d e6 3d a8 33 a0 3d ec 6b a2 3c
       -0.030475004 0.11257523 0.07822353 0.019826852
000170 be b4 d0 3d 30 13 b6 bc 98 63 cc bc c1 10 1a bd
       0.10190724 -0.022225946 -0.024949834 -0.037613634
000180 22 b4 f1 3d 8a 0b 64 bd e4 cd 04 3d d1 96 e0 3d
       0.11801936 -0.055675067 0.032422915 0.10966266
000190 2a 99 01 3d ea 1a 4c bd ba df 02 3c 46 e4 d9 3d
       0.03164021 -0.049830355 0.007987911 0.10639243
0001a0 cd 58 1c bd d3 66 90 bd 7e 42 e1 bd 32 fd ab 3d
       -0.038170625 -0.07050862 -0.109990105 0.083979025
0001b0 28 fa 96 3d 1c dd 24 bd 64 10 96 bd 04 9d d5 3c
       0.07371932 -0.04024993 -0.07327345 0.026075847
0001c0 35 34 56 3e 8d bd 24 3d e9 f5 63 3c 44 f0 91 3d
       0.20918353 0.040219832 0.01391361 0.07125905
0001d0 c4 0c 54 bd 3e e3 8c 3d fc 3d 7c bd 8d 00 b5 bd
       -0.051769987 0.068792805 -0.06158255 -0.08837996
0001e0 64 82 0d bd b6 a8 2a 3e 23 80 19 3e db 83 f1 bd
       -0.03454818 0.1666592 0.14990287 -0.117927276
0001f0 02 e1 97 3d 02 ed 1a bd ce 03 a1 bd 6d bb b7 3c
       0.07415964 -0.037823685 -0.07862054 0.022428239
000200 28 2b b2 3d a3 5f 68 3d ce 8b 8c 3c 54 35 75 3d
       0.08699638 0.05673183 0.017156508 0.05986531
000210 bb 31 16 be 86 80 52 bd 4d 53 25 bd af e3 d7 bc
       -0.14667408 -0.0513921 -0.040362645 -0.026353685
000220 7f 3b 52 3a 70 93 26 bd 76 8d 85 3d df df c4 3a
       0.000801973 -0.04066795 0.06521122 0.0015020332
000230 49 4c 8b 3d 5a 6e 6c 3d d7 fc 57 3d cf 6a fb 3d
       0.068016596 0.057722427 0.05273136 0.122762315
000240 20 44 32 bd f0 46 39 3e 9d 37 1a 3d c1 ba 9a bd
       -0.043522 0.18093467 0.037650693 -0.07555152
000250 b1 a3 9c bd a3 91 c9 3c 35 6d 41 bc 15 a4 cc 3c
       -0.07648409 0.024605578 -0.011805822 0.024980584
000260 cc 0e 84 3d fe b8 b0 3c 9a fd 3c be 78 39 d8 3c
       0.06448135 0.021572586 -0.18456116 0.02639459
000270 a0 30 11 3e 39 d8 b5 bb 3d 70 df bd b1 66 f6 3c
       0.14178705 -0.0055494574 -0.1091008 0.030078264
000280 c1 08 9b 3d c4 1f 8f 3d e2 22 87 bb 01 15 28 3e
       0.07570029 0.06988481 -0.0041240314 0.16414262
000290 31 e5 2f bd 13 d8 1d be 07 1c b6 bd 01 a3 83 3c
       -0.042943183 -0.15414457 -0.088920645 0.016068937
0002a0 3f ab 47 3d b2 02 8d bd aa 67 d1 bd 71 86 4f 3c
       0.048747297 -0.0688528 -0.102248505 0.012666331
0002b0 68 31 96 bd df 66 89 3d 9e 22 d8 bd e5 b0 5b bd
       -0.07333642 0.06709074 -0.10553478 -0.053635497
0002c0 d6 87 c2 bd f6 4e 7c 3d c8 0e f0 3b 01 8b 8c 3c
       -0.09498565 0.06159874 0.007325981 0.017156126
0002d0 e1 56 fd 3c 4b e8 59 bc 5a a5 73 bd 06 88 32 3e
       0.030925216 -0.013300012 -0.059483863 0.17434701
0002e0 92 64 03 3d af 83 4c bd a6 ef 1c be ef 4f 7f 3c
       0.032078333 -0.04993027 -0.15325794 0.0155830225
0002f0 64 57 e8 bd fa e3 87 3c eb 34 91 be 86 4f d7 bd
       -0.113447934 0.0165882 -0.28360686 -0.10513215
000300 b5 5c cb bc 61 d4 eb bd 31 3d 48 bd e7 29 2a bd
       -0.02482448 -0.115151174 -0.04888648 -0.041543867
000310 06 66 87 bd 0d cf 0d bd c2 e7 08 be 69 df 2a 3c
       -0.06611256 -0.034621287 -0.13369659 0.010429242
000320 22 d5 ca 3a 67 a5 1d 3d b1 9e e8 bd 49 f6 aa bd
       0.0015474895 0.038487818 -0.11358393 -0.083477564
000330 38 2c 16 3d cb 2c 64 3c a7 3d 52 bc f8 05 93 bb
       0.036663264 0.013926695 -0.012832082 -0.0044867955
000340 f7 0a 3b be 1e ae 5e 3c e8 aa 83 bc bd ee 47 bc
       -0.18265902 0.013591317 -0.016072705 -0.012202916
000350 81 5b a9 3c 0e 88 99 3d 75 53 a6 3c b0 38 ad bc
       0.020673515 0.074966535 0.020303467 -0.021145195
000360 38 24 34 be 79 c5 64 bd 88 bb 75 be 32 dc 99 bc
       -0.17591941 -0.055852387 -0.23997319 -0.018781755
000370 69 3f 91 3d b3 7f f9 3b 09 7f 04 be 16 78 42 bd
       0.07092173 0.0076141 -0.12939085 -0.047477804
000380 48 c1 e8 bd d4 e3 eb bc fa 50 99 3d ec d7 5c bd
       -0.113649905 -0.02879516 0.07486148 -0.053916857
000390 0d 0c a9 3c 27 2e 41 3d 92 8a 2e bc bf 4a 4a 3e
       0.02063563 0.047163155 -0.010653155 0.19755076
0003a0 8c 74 2e bd fd fd fd bd dd 8b 4a 3d c7 a0 df bd
       -0.042591617 -0.1240196 0.04944979 -0.10919338
0003b0 a9 c0 47 bd 2d 53 35 3d a6 de 64 bc 18 b0 04 bd
       -0.04876772 0.044268776 -0.013969099 -0.0323945
0003c0 b2 05 ac bc 0f 99 bd 3c d3 30 c5 3a 8b 8a 9b 3d
       -0.02099881 0.023144273 0.0015044458 0.07594784
0003d0 2e a7 df 3c 5f 28 c2 3c 21 78 d5 bd b6 40 d4 3c
       0.027301397 0.023700891 -0.104233034 0.025909763
0003e0 bb 6f bb 3d 0d e9 84 3c f3 58 97 3d 66 cc 00 3e
       0.0915217 0.016224409 0.073900126 0.12577972
0003f0 17 4e 99 3c e1 be f9 3d f4 97 b0 bd 46 3e 13 3d
       0.018713994 0.121946104 -0.08622733 0.03594806

model.2.bias f4 [64]
000000 50 06 26 bd fd 6f 91 bd 75 96 0e 3d 09 1d a5 3d
       -0.040533364 -0.07101438 0.034811456 0.08062179
000010 2f 61 09 3e 2e 0b 5a 3d 42 f2 52 3e 12 dc 49 3b
       0.13415979 0.053233318 0.20600227 0.0030801338
000020 02 d0 a2 bd 3c a9 ea 3c d4 7f 43 bd db 87 6c 3d
       -0.079498306 0.02864515 -0.04772933 0.05774675
000030 06 eb c5 bc 81 ea 0a 3e bc fc 8b bd 16 c5 2d bd
       -0.02415992 0.13566019 -0.06835315 -0.042424284
000040 0b d5 ce 3d 57 6f c0 3d d1 d5 8c bb 8e 4e c4 3d
       0.100992285 0.093962364 -0.00429795 0.095852956
000050 f7 3f 59 3e f5 71 56 3e 3d 14 90 3d 1c 21 b2 bb
       0.21215807 0.20941909 0.0703511 -0.005436076
000060 d3 d1 06 bd 9b e2 05 3b 91 86 ac 3c 0c 70 f2 bd
       -0.032914948 0.0020429257 0.02106026 -0.118377775
000070 ec 7b f8 3d 8e 1d 98 bd 4c a1 99 3d da 0c 45 3d
       0.12133011 -0.07427512 0.07501468 0.04810796
000080 95 09 db 3d 92 66 9a 3c 42 ae ae bd f5 e0 6e bd
       0.10695187 0.018847737 -0.08529331 -0.058320004
000090 cd 61 b4 3d f4 bf 7b bd 9e 47 2c 3d 10 93 17 3d
       0.088077165 -0.061462358 0.042060487 0.037005484
0000a0 b5 eb e4 3d 02 43 73 3c 27 8d 81 bd e7 4a fb bd
       0.1117777 0.014847519 -0.06325751 -0.12270146
0000b0 9d 75 a5 3c 07 b1 3a bd 84 b3 a0 bb 0c 40 4c 3e
       0.020197684 -0.045578983 -0.0049042124 0.19946307
0000c0 5f ac 12 3d 2e 4e 12 bd d3 66 9d bd 20 45 39 bd
       0.035808917 -0.03571909 -0.07685628 -0.04523194
0000d0 dc 82 e3 3d 3c 87 52 3c 06 d8 01 3e d4 94 04 be
       0.11108944 0.012849625 0.12680063 -0.12947398
0000e0 4c e6 ab 3d 66 30 a6 3d 96 13 a5 bc 97 f6 a4 3d
       0.08393535 0.081147 -0.02015094 0.08054846
0000f0 38 f9 a6 bd e1 a7 90 3d 7b 40 cc bb 52 0b 0c 3e
       -0.081530035 0.0706327 -0.0062332726 0.13676193

model.4.weight f4 [4, 64]
000000 2d 5c ce bc da e4 c5 3e 56 14 04 3e d0 e7 cf 3d
       -0.025190437 0.38651162 0.12898383 0.101516366
000010 0f 4e d7 bc d5 e6 1b 3b e1 db f3 3d c2 09 05 be
       -0.026282338 0.002378871 0.11907173 -0.12992004
000020 83 dc f3 bb 70 c1 b0 3c bd eb 23 bd fd 14 17 3e
       -0.0074420585 0.021576613 -0.04001974 0.147541
000030 87 e7 58 3d ac ee ee 3d 25 49 a6 bd 84 2e 17 3e
       0.052955177 0.11666617 -0.0811942 0.14763838
000040 7f ee 03 3e 12 9d 9c bc 32 86 84 3d 70 64 d0 ba
       0.12883948 -0.019117866 0.06470908 -0.0015899073
000050 10 08 21 3e 25 77 f3 3d 70 36 9c 3e e3 57 f2 3e
       0.15725732 0.118879594 0.30510283 0.47332677
000060 51 c4 60 3c 8e e4 2c 3c d8 94 95 3d 97 dd a9 bd
       0.0137186805 0.010552539 0.0730378 -0.08294218
000070 6e 57 01 3e c8 b7 b6 3c 26 c7 18 3e fc 48 39 be
       0.12631008 0.02230443 0.14919719 -0.18094248
000080 fa 9b 48 3d 5e a1 11 bb b9 e9 17 bd a0 d6 a6 bc
       0.048976876 -0.0022221426 -0.03708813 -0.020366013
000090 4e 55 1e 3e 97 2a c0 3e 82 68 c3 3e aa ab e5 3d
       0.15462229 0.37532493 0.3816567 0.11214383
0000a0 64 c0 0f 3e 76 6b 0e bc 89 7a 6b 3e a5 74 c1 bc
       0.14038235 -0.008692613 0.22995962 -0.02361519
0000b0 65 ec 6d be bd ff ed 3d b9 5c 7e be a0 d7 27 3d
       -0.23234709 0.11621044 -0.24840058 0.04097712
0000c0 a9 73 c9 bc f6 a9 35 be b9 dd b8 bd 84 e7 00 3f
       -0.024591284 -0.17740616 -0.09026665 0.50353265
0000d0 b3 84 c2 3c 99 64 5e bd be 86 d3 3d 02 7f 22 be
       0.023744917 -0.054295156 0.103284344 -0.15868762
0000e0 09 75 75 3e f0 8e 61 3e f7 70 e7 bd b9 40 75 bc
       0.23970427 0.22027183 -0.11300843 -0.014969044
0000f0 51 8a ad bd f9 6d 37 3c f3 fe fb bb fe 82 30 3e
       -0.084736474 0.011195653 -0.0076903044 0.1723747
000100 e7 99 99 bd 36 00 a6 3e 83 d6 1a 3e e8 0f f6 3d
       -0.07500058 0.32422036 0.15120892 0.120147526
000110 a0 a5 b6 3d 58 4f 07 3e ca 20 f6 3d 9e 64 00 3e
       0.08918309 0.13213861 0.12017973 0.12538382
000120 d1 68 fc bd 42 26 cc 3c 12 e7 72 bd 9c 05 e1 3d
       -0.1232468 0.024920586 -0.059302397 0.10987398
000130 28 3a 17 3e 30 ac f2 3d 19 de cc 3d f9 f8 26 3e
       0.14768279 0.118492484 0.10003299 0.16305913
000140 75 0a 8e 3d c1 f5 9b 3d d1 24 ac 3d 48 24 0c 3e
       0.06935588 0.07615233 0.0840546 0.13685715
000150 d2 47 f7 3d 62 2c b8 3d a0 77 5f 3e 79 f5 d3 3e
       0.120742455 0.0899284 0.21822977 0.41398218
000160 40 d9 37 3e 18 24 96 3e 3d 52 05 3e 1c 43 1c be
       0.17953968 0.29324412 0.13019653 -0.15259975
000170 90 2c fa bc 2f e3 9a b9 03 e9 01 3d f6 60 ad bd
       -0.030538827 -0.00029542434 0.031716358 -0.084657595
000180 04 76 d6 3d 2c e3 f6 bc 1b 3b 89 bc d4 9a e3 3c
       0.104717284 -0.03013762 -0.016751816 0.027783789
000190 03 b8 a3 3d 5b 74 a0 3e af 77 89 3e ed 3f ee 3d
       0.07994082 0.31338772 0.26849124 0.116332866
0001a0 cf d2 f6 3d 0e da 93 3d 6c 70 a4 3e 39 6c f8 bd
       0.12051927 0.07219325 0.3211702 -0.12130017
0001b0 a3 b9 23 be 7a 5d 19 3e 1d 7a b3 bd 26 ad cf 3d
       -0.15988784 0.14977065 -0.08763526 0.10140447
0001c0 31 ca c2 bd ae 47 d7 bd b1 7c 89 3c bf d0 54 3e
       -0.09511221 -0.10511719 0.01678309 0.20782755
0001d0 b9 e8 47 3c a1 ce 3a 3c 66 d1 12 3e f3 53 df bd
       0.0122014815 0.011401803 0.14337692 -0.10904684
0001e0 da 72 88 3e b2 e2 e5 3d 6a d2 9d bd 75 88 0b 3e
       0.26650125 0.11224879 -0.07706149 0.13626273
0001f0 23 37 15 be af 69 8f 3d 8e 32 25 3d e4 d2 89 3d
       -0.14571814 0.070025794 0.040331416 0.06729677
000200 fd 84 7c bd 24 c9 8b 3d 8d 47 4a 3e dd 76 63 3d
       -0.061650265 0.06825474 0.19753857 0.05553328
000210 5e e7 da 3d 28 21 c3 bb 8d ed 79 3d 58 59 1f bc
       0.10688661 -0.0059548803 0.06101756 -0.009725891
000220 63 00 25 be 48 ad ac bd 06 05 0b be b1 0b b6 3d
       -0.16113429 -0.08431488 -0.13576135 0.08888949
000230 6e 65 93 3d ef 6a 89 3c 52 75 47 bd 11 35 b6 3e
       0.071970806 0.016774623 -0.04869587 0.3558736
000240 f7 b0 38 3d ee 06 7e be 23 f3 a4 bd fc 79 d8 3d
       0.04509064 -0.24807331 -0.08054187 0.10570142
000250 ac 53 fd 3d af 14 22 3e e2 ac 3a 3e 47 f3 14 3f
       0.12369475 0.15828203 0.18230012 0.5818371
000260 4d a3 9c bd bb 44 be bd c5 f4 92 3c d8 d6 39 bd
       -0.07648335 -0.09290453 0.01793898 -0.045370907
000270 7a dc 22 3e fd 92 1b be 8b 41 16 bd 25 a8 ae bd
       0.15904418 -0.1519279 -0.0366836 -0.08528165
000280 ae c1 a9 3d 90 78 e4 bd fd 84 5d be 14 e8 48 be
       0.082888946 -0.11155808 -0.21632762 -0.19619781
000290 4c 7c b6 3d b7 5d 1f 3e ed c1 4b 3e e5 6b ab bc
       0.089104265 0.15563093 0.19898196 -0.020925472
0002a0 4e b4 7c 3d 6f e7 42 3c ac a2 d4 bd 86 0c b0 bd
       0.06169539 0.011895998 -0.1038259 -0.08596139
0002b0 b0 a9 8f be a0 74 4c 3d 2a 30 2f be 58 be a4 3d
       -0.2805915 0.04991591 -0.17108217 0.08044118
0002c0 10 9a d5 3c 15 86 0b bd 77 50 c4 3e 0f e9 fb 3d
       0.02607444 -0.034063417 0.3834264 0.12300312
0002d0 d4 d0 92 3d 97 fb dd 3d bb a7 96 3d da a7 0d be
       0.07168737 0.108390026 0.07356211 -0.13833562
0002e0 97 73 33 3d 29 e0 59 3e 43 66 ab bb ae 1d 1b 3e
       0.043811407 0.21276917 -0.0052306964 0.1514804
0002f0 3d 17 77 be 5a de 1e 3e e6 7e 31 3e bb 48 af 3d
       -0.24129958 0.15514508 0.17333564 0.08558794
000300 2b 65 e0 bd cf 96 86 3c a7 80 b7 3c 9d 59 60 3e
       -0.10956796 0.016429333 0.022400213 0.21909185
000310 9e a8 d6 3d 52 9d d1 3d ba 31 10 3e 22 f6 ab 3d
       0.1048138 0.102350846 0.14081469 0.083965555
000320 d0 95 83 bd 38 43 1f 3e a3 69 1f be 3f 0f 45 3e
       -0.06425059 0.15552986 -0.15567641 0.19244097
000330 87 94 a5 3e c9 9d 0f 3d d1 7a 06 be d5 53 aa 3e
       0.3233988 0.035062585 -0.13132788 0.33267084
000340 c9 0b d2 3d 87 8f 86 be 1c a9 84 3d 8b 47 a3 3d
       0.10256154 -0.26281378 0.064775676 0.0797263
000350 d5 a1 3a 3e 60 79 e4 3d 13 e2 c3 3d d9 43 26 bd
       0.18225797 0.11155963 0.095646046 -0.04059205
000360 83 be 77 3e 6a 94 a6 3e 4d b3 90 3d a0 5a 7f bc
       0.24193768 0.32535106 0.07065449 -0.0155855715
000370 69 9c 3a 3d 04 6f ba bc 1e c2 30 3e c8 ab e4 3c
       0.04555932 -0.022758015 0.1726155 0.027913943
000380 56 ce da bc 32 ca 92 3d 3b 54 0d be 1d c4 20 3d
       -0.026709717 0.07167472 -0.13801663 0.03924953
000390 24 3e f0 3d 61 ae 20 3e 50 6b bf 3e 11 df a8 3c
       0.117306024 0.1569152 0.3738656 0.020614179
0003a0 78 bc aa bc 12 46 28 3e 71 54 c4 3e a3 5b 12 3d
       -0.020841822 0.1643298 0.38345674 0.035731923
0003b0 fa 30 5c be 5c d4 a2 bd 2d 71 8d be cc 3a 13 3e
       -0.21503058 -0.079506606 -0.2762541 0.14377898
0003c0 d2 81 e7 3d e1 c0 8d bd e3 5a 2f 3d e1 47 cd 3e
       0.11304058 -0.06921554 0.042811286 0.40093902
0003d0 a1 ca fa 3b 5e bf c1 3b fb 02 eb 3c 9b a7 a3 bd
       0.00765355 0.0059127053 0.028687945 -0.079909526
0003e0 cf f3 dc 3d 05 13 0e 3e 60 ba 44 be f0 fa 92 3d
       0.1078869 0.13874443 -0.19211721 0.07176769
0003f0 cf 2a fb bd 37 2f a5 bb 13 aa 34 be 0b d1 ea 3d
       -0.122640245 -0.005041029 -0.17643003 0.11465653

model.4.bias f4 [4]
000000 d9 99 26 3c 93 d7 71 3c 8e 0e 05 3e 2d 08 d2 3d
       0.010168516 0.01476087 0.12993833 0.10255466
